Model/converted_model.tflite (tflite, 36080 bytes, 8 tensors)

sequential/dense/MatMul/ReadVariableOp/transpose i1 [120, 132] scale=0.005817088 zero_point=0
0	0xf8	-0.046536703
1	0xec	-0.116341755
2	0xfd	-0.017451264
3	0x11	0.09889049
4	0x1f	0.18032973
5	0x29	0.2385006
6	0x0f	0.08725632
7	0x0b	0.06398796
8	0x09	0.052353792
9	0xef	-0.09889049
10	0xfa	-0.034902528
11	0x04	0.023268351
12	0x14	0.116341755
13	0x15	0.12215885
14	0x1b	0.15706137
15	0xfc	-0.023268351
16	0x07	0.040719613
17	0xe7	-0.1454272
18	0x28	0.23268351
19	0xf0	-0.093073405
20	0x1b	0.15706137
21	0xe5	-0.15706137
22	0xfb	-0.029085439
23	0x1a	0.15124428
24	0xe4	-0.16287845
25	0x1b	0.15706137
26	0x34	0.30248857
27	0xf5	-0.06398796
28	0x0d	0.07562214
29	0x10	0.093073405
30	0xf6	-0.058170877
31	0x28	0.23268351
32	0xfd	-0.017451264
33	0x02	0.011634176
34	0x20	0.18614681
35	0x03	0.017451264
36	0xf3	-0.07562214
37	0x0a	0.058170877
38	0x2c	0.25595185
39	0x08	0.046536703
40	0x18	0.13961011
41	0xd0	-0.27922022
42	0xe2	-0.17451264
43	0x02	0.011634176
44	0x1c	0.16287845
45	0xee	-0.104707584
46	0x00	0.0
47	0xd4	-0.25595185
48	0x04	0.023268351
49	0xf0	-0.093073405
50	0x05	0.029085439
51	0xf5	-0.06398796
52	0xec	-0.116341755
53	0xfb	-0.029085439
54	0xec	-0.116341755
55	0xdf	-0.1919639
56	0xf1	-0.08725632
57	0xfc	-0.023268351
58	0x3a	0.3373911
59	0x1a	0.15124428
60	0x37	0.31993982
61	0x34	0.30248857
62	0x1f	0.18032973
63	0x15	0.12215885
64	0xdf	-0.1919639
65	0x07	0.040719613
66	0x36	0.31412274
67	0x45	0.40137905
68	0x3d	0.35484236
69	0x28	0.23268351
70	0xef	-0.09889049
71	0xea	-0.12797593
72	0x03	0.017451264
73	0xec	-0.116341755
74	0x04	0.023268351
75	0x27	0.22686642
76	0xf5	-0.06398796
77	0x21	0.1919639
78	0x08	0.046536703
79	0x34	0.30248857
80	0x0e	0.08143923
81	0xf1	-0.08725632
82	0x25	0.21523225
83	0x14	0.116341755
84	0x35	0.30830565
85	0x31	0.2850373
86	0x23	0.20359807
87	0xe2	-0.17451264
88	0x08	0.046536703
89	0x1e	0.17451264
90	0x14	0.116341755
91	0x07	0.040719613
92	0x04	0.023268351
93	0xec	-0.116341755
94	0xfa	-0.034902528
95	0x04	0.023268351
96	0xfe	-0.011634176
97	0x0f	0.08725632
98	0xdd	-0.20359807
99	0xfc	-0.023268351
100	0x11	0.09889049
101	0x21	0.1919639
102	0xee	-0.104707584
103	0x05	0.029085439
104	0x41	0.3781107
105	0x1d	0.16869555
106	0x03	0.017451264
107	0xdd	-0.20359807
108	0x0f	0.08725632
109	0xc3	-0.35484236
110	0x01	0.005817088
111	0xfd	-0.017451264
112	0xf7	-0.052353792
113	0x2d	0.26176897
114	0x12	0.104707584
115	0x00	0.0
116	0x1d	0.16869555
117	0x0c	0.069805056
118	0xf6	-0.058170877
119	0x25	0.21523225
120	0x1d	0.16869555
121	0x09	0.052353792
122	0xfc	-0.023268351
123	0x02	0.011634176
124	0xe7	-0.1454272
125	0xf1	-0.08725632
126	0x1d	0.16869555
127	0xef	-0.09889049
128	0x22	0.19778098
129	0xe4	-0.16287845
130	0xe2	-0.17451264
131	0x08	0.046536703
132	0x25	0.21523225
133	0xfd	-0.017451264
134	0x33	0.29667148
135	0x11	0.09889049
136	0xe9	-0.13379303
137	0xe2	-0.17451264
138	0x0c	0.069805056
139	0x13	0.11052467
140	0x0c	0.069805056
141	0x3c	0.34902528
142	0x00	0.0
143	0x22	0.19778098
144	0x0b	0.06398796
145	0xe2	-0.17451264
146	0xf0	-0.093073405
147	0x2a	0.2443177
148	0xe8	-0.13961011
149	0x38	0.3257569
150	0x1d	0.16869555
151	0x04	0.023268351
152	0xda	-0.22104934
153	0x1e	0.17451264
154	0x11	0.09889049
155	0x17	0.13379303
156	0x0a	0.058170877
157	0xf4	-0.069805056
158	0x25	0.21523225
159	0x1e	0.17451264
160	0x17	0.13379303
161	0x4c	0.44209868
162	0x25	0.21523225
163	0xd3	-0.26176897
164	0x07	0.040719613
165	0x06	0.034902528
166	0x0f	0.08725632
167	0x17	0.13379303
168	0x09	0.052353792
169	0x30	0.27922022
170	0xfb	-0.029085439
171	0x08	0.046536703
172	0xf4	-0.069805056
173	0xdb	-0.21523225
174	0xe5	-0.15706137
175	0xf2	-0.08143923
176	0xeb	-0.12215885
177	0x0e	0.08143923
178	0xdc	-0.20941517
179	0xea	-0.12797593
180	0xe7	-0.1454272
181	0xc0	-0.37229362
182	0xdd	-0.20359807
183	0x0c	0.069805056
184	0xf3	-0.07562214
185	0x13	0.11052467
186	0x12	0.104707584
187	0xec	-0.116341755
188	0x12	0.104707584
189	0x18	0.13961011
190	0xeb	-0.12215885
191	0xf4	-0.069805056
192	0xf0	-0.093073405
193	0x0a	0.058170877
194	0xea	-0.12797593
195	0x28	0.23268351
196	0x29	0.2385006
197	0x11	0.09889049
198	0x12	0.104707584
199	0x06	0.034902528
200	0x16	0.12797593
201	0xf7	-0.052353792
202	0x29	0.2385006
203	0x34	0.30248857
204	0x22	0.19778098
205	0x0c	0.069805056
206	0xdd	-0.20359807
207	0x01	0.005817088
208	0xf1	-0.08725632
209	0xf5	-0.06398796
210	0xd8	-0.23268351
211	0xe2	-0.17451264
212	0x1f	0.18032973
213	0xf7	-0.052353792
214	0x06	0.034902528
215	0x12	0.104707584
216	0x1a	0.15124428
217	0x0a	0.058170877
218	0xf5	-0.06398796
219	0x0b	0.06398796
220	0xf3	-0.07562214
221	0xfe	-0.011634176
222	0xf7	-0.052353792
223	0x0c	0.069805056
224	0x21	0.1919639
225	0x08	0.046536703
226	0x27	0.22686642
227	0x2a	0.2443177
228	0x22	0.19778098
229	0x01	0.005817088
230	0x17	0.13379303
231	0x06	0.034902528
232	0x1f	0.18032973
233	0x17	0.13379303
234	0x21	0.1919639
235	0xee	-0.104707584
236	0xeb	-0.12215885
237	0xe8	-0.13961011
238	0xd2	-0.26758605
239	0x01	0.005817088
240	0xfd	-0.017451264
241	0xb0	-0.46536702
242	0xf3	-0.07562214
243	0xf4	-0.069805056
244	0xfe	-0.011634176
245	0xe8	-0.13961011
246	0xfd	-0.017451264
247	0xff	-0.005817088
248	0xdd	-0.20359807
249	0x08	0.046536703
250	0xe2	-0.17451264
251	0x02	0.011634176
252	0xfb	-0.029085439
253	0x06	0.034902528
254	0x0c	0.069805056
255	0xf0	-0.093073405

sequential/dense/MatMul_bias f4 [120]
0	0x3d74c5ce	0.059758954
1	0x3d6d010c	0.057862327
2	0x3cc26b7c	0.023732893
3	0x3de02f84	0.10946563
4	0x3e150627	0.14553128
5	0x3c82c89c	0.015964799
6	0x3d1ce3ba	0.038303114
7	0x3e679963	0.22617106
8	0x3de7c961	0.11317707
9	0x3d40371f	0.046927568
10	0x3cba9d04	0.022779949
11	0x3e77df79	0.24206342
12	0xbc3d5d8e	-0.01155795
13	0x3cd58d56	0.02606837
14	0xbce16ba5	-0.02751715
15	0x3db13759	0.08653135
16	0x3d8caf43	0.06869366
17	0x3ea805fc	0.32817066
18	0x3c5c07d2	0.013429599
19	0x3da262fd	0.07929037
20	0x3e196268	0.14978945
21	0x3d7b15aa	0.061299957
22	0x3e671cc7	0.22569571
23	0x3e574833	0.21023636
24	0x3d09b394	0.033618525
25	0x3dfd51d6	0.123691246
26	0x3e16be96	0.1472114
27	0x3d316cb4	0.043316558
28	0x3d29caf5	0.04145332
29	0x3e35168c	0.17684382
30	0x3d10d08b	0.035355132
31	0x3dfb4c67	0.12270432
32	0x3c72b522	0.014813693
33	0x3cdf686a	0.027271468
34	0x3dcf8c46	0.10134177
35	0x3da43f80	0.08019924
36	0x3c851361	0.016244592
37	0x3e15ae4e	0.14617273
38	0x3daf59e7	0.085620694
39	0x3da693c1	0.081336506
40	0x3d9c1c27	0.07622557
41	0x3e043ebe	0.12914559
42	0x3d4cb5ca	0.049978055
43	0x3dc96d41	0.09835292
44	0x3e024a37	0.12723623
45	0x3cbceefe	0.02306318
46	0xbd47c238	-0.048769206
47	0x3e2c91f3	0.1685255
48	0x3cfa7ddc	0.030577593
49	0x3db40c3a	0.087913945
50	0xbcb9dbc5	-0.022687802
51	0x3d08ed49	0.033429418
52	0x3e208b80	0.15678215
53	0x3dcc6115	0.099794544
54	0x3df156ed	0.11784158
55	0x3e3253ec	0.17414826
56	0x3d00dd3e	0.031460993
57	0x3e009d9c	0.12560123
58	0x3dae619b	0.085147105
59	0x3d327535	0.04356881
60	0x3d6e6640	0.058202982
61	0x3dd77b38	0.10521549
62	0x3de06585	0.10956863
63	0x3e01d114	0.12677413
64	0x3e20a37e	0.15687367
65	0x3c36cb8d	0.011156929
66	0x3d679235	0.05653592
67	0x3d9f0e47	0.07766395
68	0xbd272f17	-0.040816393
69	0x3c1ea7e1	0.00968358
70	0x3e38b7e6	0.18038902
71	0xba948eaf	-0.0011334027
72	0x3e0df21a	0.13861886
73	0x3e360ea7	0.17779027
74	0x3dc2ad14	0.09505668
75	0xbc807928	-0.015682772
76	0x3dbe1298	0.0928089
77	0x3c70e660	0.014703363
78	0x3da1cbca	0.07900198
79	0x3e05d687	0.13070117
80	0xbcbc012c	-0.022949778
81	0x3db61de7	0.08892422
82	0x3bcef57b	0.0063158846
83	0x3cb467a7	0.022022082
84	0x3d0dd428	0.034626156
85	0x3e28c505	0.16481407
86	0xbcf62c57	-0.03005044
87	0x3e1a04f8	0.15040958
88	0x3cf8573e	0.030315038
89	0x3df30139	0.118654676
90	0xbc119179	-0.008884781
91	0x3db1a8ee	0.08674799
92	0x3d6c9c97	0.057766523
93	0x3e056735	0.13027652
94	0x3c6e286d	0.014536005
95	0x3dbbaf01	0.09164239
96	0x3d5ec2c4	0.05438496
97	0x3dd28085	0.102784194
98	0x3e03b62b	0.1286246
99	0x3e29d408	0.1658479
100	0x3e1bd33d	0.152173
101	0x3e04372d	0.12911673
102	0x3de211e1	0.110385664
103	0x3d660fc2	0.05616737
104	0x3e14158e	0.14461347
105	0x3e2c5bde	0.1683192
106	0x3d77b65a	0.06047664
107	0x3ddf72a7	0.1091054
108	0xbd3047da	-0.043037273
109	0x3cda9410	0.02668193
110	0x3d9258f0	0.0714587
111	0x3d7cfb2e	0.06176298
112	0x3e171f8c	0.14758128
113	0x3dc1104d	0.09426937
114	0x3e0c65f2	0.13710764
115	0x3dd82df4	0.1055564
116	0x3dcd7788	0.100325644
117	0x3db27c2c	0.0871509
118	0x3e00a4a5	0.12562807
119	0x3d6a95da	0.057271816

sequential/dense_1/MatMul/ReadVariableOp/transpose i1 [80, 120] scale=0.003917822 zero_point=0
0	0xdf	-0.12928814
1	0xfd	-0.011753466
2	0x1f	0.12145249
3	0x22	0.13320595
4	0xdb	-0.14495942
5	0x26	0.14887725
6	0xcb	-0.20764457
7	0xfa	-0.023506932
8	0x3b	0.2311515
9	0xc6	-0.22723368
10	0xf3	-0.05093169
11	0x43	0.2624941
12	0xf4	-0.047013864
13	0xe0	-0.12537031
14	0xe4	-0.10969902
15	0x42	0.25857627
16	0x3d	0.23898715
17	0xf6	-0.039178222
18	0xb1	-0.30950794
19	0x14	0.078356445
20	0x24	0.14104159
21	0x11	0.066602975
22	0x2a	0.16454853
23	0x0c	0.047013864
24	0xe9	-0.09010991
25	0xe6	-0.10186338
26	0x31	0.19197328
27	0x15	0.082274266
28	0xf4	-0.047013864
29	0xf3	-0.05093169
30	0xd7	-0.1606307
31	0x61	0.38002875
32	0xeb	-0.082274266
33	0xe8	-0.09402773
34	0xc5	-0.2311515
35	0x3e	0.24290498
36	0xc7	-0.22331586
37	0xe1	-0.12145249
38	0xed	-0.074438624
39	0xef	-0.066602975
40	0x3d	0.23898715
41	0xe8	-0.09402773
42	0x1b	0.1057812
43	0x05	0.019589111
44	0x4a	0.28991884
45	0x0f	0.058767334
46	0xd0	-0.18805546
47	0x1b	0.1057812
48	0x47	0.27816537
49	0xb3	-0.3016723
50	0x05	0.019589111
51	0x2a	0.16454853
52	0x4e	0.30559012
53	0x15	0.082274266
54	0x18	0.09402773
55	0xc2	-0.24290498
56	0x10	0.062685154
57	0xcf	-0.19197328
58	0x39	0.22331586
59	0x17	0.09010991
60	0x1d	0.11361684
61	0x3c	0.23506933
62	0x0a	0.039178222
63	0x27	0.15279506
64	0xd2	-0.18021981
65	0xd0	-0.18805546
66	0x4d	0.3016723
67	0xfd	-0.011753466
68	0x19	0.097945556
69	0xe0	-0.12537031
70	0xb4	-0.2977545
71	0xe9	-0.09010991
72	0xfb	-0.019589111
73	0x1e	0.11753467
74	0x45	0.2703297
75	0x3d	0.23898715
76	0x19	0.097945556
77	0xf6	-0.039178222
78	0xca	-0.2115624
79	0x33	0.19980893
80	0xd8	-0.15671289
81	0xfa	-0.023506932
82	0x3a	0.22723368
83	0x20	0.12537031
84	0xde	-0.13320595
85	0x24	0.14104159
86	0xf0	-0.062685154
87	0x13	0.074438624
88	0xf6	-0.039178222
89	0xf6	-0.039178222
90	0xc2	-0.24290498
91	0x4a	0.28991884
92	0xe5	-0.1057812
93	0xd7	-0.1606307
94	0xef	-0.066602975
95	0x08	0.031342577
96	0xe4	-0.10969902
97	0x5c	0.36043963
98	0xfb	-0.019589111
99	0xe6	-0.10186338
100	0xd6	-0.16454853
101	0x5a	0.352604
102	0x1c	0.10969902
103	0xde	-0.13320595
104	0xf3	-0.05093169
105	0xe3	-0.11361684
106	0x0a	0.039178222
107	0x00	0.0
108	0xea	-0.08619209
109	0xd8	-0.15671289
110	0x13	0.074438624
111	0x44	0.2664119
112	0x1e	0.11753467
113	0x31	0.19197328
114	0x2e	0.18021981
115	0x02	0.007835644
116	0x1c	0.10969902
117	0x54	0.32909706
118	0x16	0.08619209
119	0x04	0.015671289
120	0x1e	0.11753467
121	0x1f	0.12145249
122	0x41	0.25465843
123	0x4a	0.28991884
124	0xd7	-0.1606307
125	0x2b	0.16846636
126	0x2e	0.18021981
127	0x3f	0.24682279
128	0x02	0.007835644
129	0x17	0.09010991
130	0x2d	0.176302
131	0xd4	-0.17238417
132	0x1c	0.10969902
133	0x1b	0.1057812
134	0x14	0.078356445
135	0x0e	0.05484951
136	0x48	0.28208318
137	0x16	0.08619209
138	0x00	0.0
139	0x0c	0.047013864
140	0xec	-0.078356445
141	0x32	0.19589111
142	0x61	0.38002875
143	0x12	0.070520796
144	0x1c	0.10969902
145	0x1a	0.10186338
146	0xd0	-0.18805546
147	0x1b	0.1057812
148	0xfe	-0.007835644
149	0x11	0.066602975
150	0xee	-0.070520796
151	0xb1	-0.30950794
152	0x13	0.074438624
153	0x31	0.19197328
154	0x07	0.027424755
155	0xed	-0.074438624
156	0xf8	-0.031342577
157	0xf5	-0.043096043
158	0xea	-0.08619209
159	0xf3	-0.05093169
160	0x31	0.19197328
161	0x1e	0.11753467
162	0xf8	-0.031342577
163	0x2d	0.176302
164	0x35	0.20764457
165	0xc8	-0.21939804
166	0x3d	0.23898715
167	0x0b	0.043096043
168	0xec	-0.078356445
169	0x17	0.09010991
170	0x15	0.082274266
171	0xe5	-0.1057812
172	0x0a	0.039178222
173	0xc6	-0.22723368
174	0xcb	-0.20764457
175	0x50	0.31342578
176	0x01	0.003917822
177	0x25	0.14495942
178	0x14	0.078356445
179	0xf1	-0.058767334
180	0xe3	-0.11361684
181	0x14	0.078356445
182	0xbe	-0.25857627
183	0x40	0.25074062
184	0x3c	0.23506933
185	0xca	-0.2115624
186	0xd0	-0.18805546
187	0xec	-0.078356445
188	0xdb	-0.14495942
189	0x3c	0.23506933
190	0x1d	0.11361684
191	0xce	-0.19589111
192	0xde	-0.13320595
193	0xe1	-0.12145249
194	0xf6	-0.039178222
195	0xfb	-0.019589111
196	0x24	0.14104159
197	0x13	0.074438624
198	0xd8	-0.15671289
199	0xf9	-0.027424755
200	0x06	0.023506932
201	0x00	0.0
202	0xdc	-0.14104159
203	0x14	0.078356445
204	0x22	0.13320595
205	0xf2	-0.05484951
206	0x15	0.082274266
207	0xd4	-0.17238417
208	0x01	0.003917822
209	0xec	-0.078356445
210	0x19	0.097945556
211	0x2b	0.16846636
212	0x19	0.097945556
213	0xe5	-0.1057812
214	0xf7	-0.035260398
215	0xcf	-0.19197328
216	0xea	-0.08619209
217	0x0e	0.05484951
218	0xd9	-0.15279506
219	0xe9	-0.09010991
220	0x03	0.011753466
221	0xd3	-0.176302
222	0x47	0.27816537
223	0x1d	0.11361684
224	0x11	0.066602975
225	0xfe	-0.007835644
226	0x20	0.12537031
227	0x21	0.12928814
228	0x0f	0.058767334
229	0xca	-0.2115624
230	0xde	-0.13320595
231	0xd1	-0.18413764
232	0xbb	-0.2703297
233	0x1e	0.11753467
234	0x05	0.019589111
235	0x3a	0.22723368
236	0x42	0.25857627
237	0xf5	-0.043096043
238	0xe6	-0.10186338
239	0xea	-0.08619209
240	0x0d	0.05093169
241	0x0a	0.039178222
242	0xeb	-0.082274266
243	0xe3	-0.11361684
244	0x57	0.34085053
245	0xe0	-0.12537031
246	0xeb	-0.082274266
247	0xdf	-0.12928814
248	0x22	0.13320595
249	0x37	0.21548022
250	0x43	0.2624941
251	0x2b	0.16846636
252	0xc6	-0.22723368
253	0xcc	-0.20372675
254	0xae	-0.3212614
255	0x3f	0.24682279

sequential/dense_1/MatMul_bias f4 [80]
0	0xbc6c2ec9	-0.014415451
1	0x3cd34cc4	0.02579344
2	0x3df5479d	0.1197655
3	0xbcb4989a	-0.022045422
4	0x3d6ab944	0.05730559
5	0x3d5b06ab	0.053473156
6	0x3bb79dbb	0.0056035197
7	0x3d1f542d	0.038898636
8	0x3d52316e	0.05131667
9	0x3cc1ad49	0.0236422
10	0x3bb46364	0.0055050123
11	0x3926b34a	0.00015897784
12	0x3d07c95c	0.033151016
13	0x3c65f8d5	0.014036377
14	0x3d73ca07	0.05951884
15	0x3bfbf8db	0.007689578
16	0x3d430f78	0.047622174
17	0x3d1fab3b	0.038981657
18	0x3d4a973c	0.049460635
19	0x3c504478	0.012711637
20	0x3d17785b	0.036980014
21	0x3af7c86c	0.0018904335
22	0xb9bf3664	-0.00036470883
23	0xbcef076e	-0.029178347
24	0x3ca82701	0.020526411
25	0x3cf44eb4	0.029822685
26	0x3ac39305	0.0014921135
27	0x3d359047	0.044327047
28	0x3c609fd1	0.013709978
29	0xbd487f14	-0.048949316
30	0xbbb523bc	-0.0055279415
31	0xb9829330	-0.00024905195
32	0x3b9c65a6	0.0047728596
33	0x3dce6102	0.100770965
34	0xbd1b46ea	-0.037909426
35	0x3d392d0a	0.04520897
36	0x3ccee8b2	0.025257442
37	0x3d1908f0	0.03736204
38	0xba916f98	-0.001109588
39	0xbc1ce1c1	-0.009575308
40	0xbc93d85f	-0.01804751
41	0x3bb274a3	0.005446033
42	0x3a121d4e	0.0005573825
43	0xbc97a188	-0.018509641
44	0xbd0921d4	-0.033479527
45	0x3c98022a	0.01855572
46	0x3b61fd92	0.0034483415
47	0xbce51e0f	-0.027968435
48	0x3d1bfb0c	0.038081214
49	0x3d8bb50d	0.06821642
50	0x3c0bd40a	0.008534441
51	0x3d1c57be	0.038169615
52	0x3d8f215e	0.06988786
53	0xbc295324	-0.010334764
54	0xbb93f903	-0.0045157685
55	0xbc97a2b6	-0.018510204
56	0x3d1f14ce	0.0388382
57	0x3d6e59bc	0.058191046
58	0x3c7f3cb4	0.015578438
59	0x3cfa686f	0.030567376
60	0x3c2f2277	0.010689369
61	0xba96a163	-0.0011492189
62	0xbb1b566f	-0.0023702641
63	0x3a8e7c05	0.0010870701
64	0xbd89ed72	-0.06734742
65	0xbd254f28	-0.040358692
66	0x3d542cb5	0.05180045
67	0xbc00d2ce	-0.00786276
68	0x3d8be8c5	0.06831507
69	0xbbc89759	-0.0061215577
70	0xbc6e17ed	-0.014532072
71	0xbd223c7e	-0.03960847
72	0x3ce075f5	0.027399996
73	0x3d3908be	0.045174353
74	0x3d743b56	0.0596269
75	0xbd5e7eff	-0.05432033
76	0x3ccb50ac	0.02481874
77	0xbc9e6bf6	-0.01933859
78	0x3d8a5acd	0.067556
79	0x3c4fcf99	0.0126837725

sequential/dense_2/MatMul/ReadVariableOp/transpose i1 [60, 80] scale=0.0068816496 zero_point=0
0	0xfc	-0.027526598
1	0x03	0.020644948
2	0xf1	-0.10322475
3	0x0e	0.09634309
4	0xe3	-0.19956784
5	0xe1	-0.21333113
6	0xf8	-0.055053197
7	0x16	0.15139629
8	0xf6	-0.0688165
9	0xed	-0.13075134
10	0x15	0.14451464
11	0xf1	-0.10322475
12	0x12	0.123869695
13	0x31	0.33720082
14	0xff	-0.0068816496
15	0xec	-0.137633
16	0x2b	0.29591092
17	0x01	0.0068816496
18	0xfe	-0.013763299
19	0x18	0.16515958
20	0x0b	0.075698145
21	0xf8	-0.055053197
22	0xf1	-0.10322475
23	0xf0	-0.11010639
24	0xe8	-0.16515958
25	0xf7	-0.061934847
26	0x1a	0.17892289
27	0xf3	-0.089461446
28	0x1a	0.17892289
29	0xfe	-0.013763299
30	0x34	0.35784578
31	0x1c	0.19268619
32	0xfe	-0.013763299
33	0x0a	0.0688165
34	0x1c	0.19268619
35	0x23	0.24085774
36	0xf8	-0.055053197
37	0x15	0.14451464
38	0xf9	-0.048171546
39	0x22	0.23397608
40	0xfa	-0.041289896
41	0x21	0.22709444
42	0xe0	-0.22021279
43	0xf7	-0.061934847
44	0xf5	-0.075698145
45	0x03	0.020644948
46	0x26	0.26150268
47	0xeb	-0.14451464
48	0xf3	-0.089461446
49	0xe2	-0.2064495
50	0x0d	0.089461446
51	0x0f	0.10322475
52	0x26	0.26150268
53	0xf5	-0.075698145
54	0x27	0.26838434
55	0x19	0.17204124
56	0xef	-0.11698804
57	0xf4	-0.08257979
58	0xe5	-0.18580455
59	0xfc	-0.027526598
60	0x20	0.22021279
61	0xe0	-0.22021279
62	0x2d	0.30967423
63	0x0e	0.09634309
64	0x08	0.055053197
65	0x23	0.24085774
66	0x01	0.0068816496
67	0xf2	-0.09634309
68	0xf8	-0.055053197
69	0xdf	-0.22709444
70	0xfc	-0.027526598
71	0x16	0.15139629
72	0xf5	-0.075698145
73	0x2b	0.29591092
74	0xf6	-0.0688165
75	0xe7	-0.17204124
76	0x12	0.123869695
77	0x03	0.020644948
78	0x00	0.0
79	0xee	-0.123869695
80	0x13	0.13075134
81	0xda	-0.26150268
82	0x23	0.24085774
83	0x22	0.23397608
84	0xfc	-0.027526598
85	0x00	0.0
86	0xf2	-0.09634309
87	0xfb	-0.03440825
88	0x10	0.11010639
89	0x12	0.123869695
90	0xf3	-0.089461446
91	0x25	0.25462103
92	0x33	0.35096413
93	0x28	0.275266
94	0x01	0.0068816496
95	0x1c	0.19268619
96	0x18	0.16515958
97	0x35	0.36472744
98	0x29	0.28214765
99	0xf4	-0.08257979
100	0x23	0.24085774
101	0x1f	0.21333113
102	0xf0	-0.11010639
103	0x09	0.061934847
104	0x10	0.11010639
105	0x28	0.275266
106	0x16	0.15139629
107	0x11	0.11698804
108	0xd9	-0.26838434
109	0xdc	-0.24773939
110	0x19	0.17204124
111	0x16	0.15139629
112	0x17	0.15827794
113	0x11	0.11698804
114	0x0c	0.08257979
115	0xfc	-0.027526598
116	0xeb	-0.14451464
117	0x21	0.22709444
118	0xf4	-0.08257979
119	0xce	-0.34408247
120	0xf1	-0.10322475
121	0x23	0.24085774
122	0x0a	0.0688165
123	0xeb	-0.14451464
124	0xe9	-0.15827794
125	0xf9	-0.048171546
126	0x05	0.03440825
127	0x1b	0.18580455
128	0xdd	-0.24085774
129	0xe9	-0.15827794
130	0x0c	0.08257979
131	0x05	0.03440825
132	0x1a	0.17892289
133	0x11	0.11698804
134	0xe7	-0.17204124
135	0x2b	0.29591092
136	0x08	0.055053197
137	0x0e	0.09634309
138	0xe9	-0.15827794
139	0xe1	-0.21333113
140	0xeb	-0.14451464
141	0xfa	-0.041289896
142	0x06	0.041289896
143	0xf2	-0.09634309
144	0xeb	-0.14451464
145	0xea	-0.15139629
146	0x1f	0.21333113
147	0xef	-0.11698804
148	0x20	0.22021279
149	0x42	0.45418888
150	0xcc	-0.35784578
151	0xdd	-0.24085774
152	0x09	0.061934847
153	0x19	0.17204124
154	0x1f	0.21333113
155	0x02	0.013763299
156	0xd9	-0.26838434
157	0xee	-0.123869695
158	0x31	0.33720082
159	0xcd	-0.35096413
160	0x00	0.0
161	0x27	0.26838434
162	0x30	0.33031917
163	0xfd	-0.020644948
164	0x17	0.15827794
165	0x1e	0.2064495
166	0xfd	-0.020644948
167	0xf4	-0.08257979
168	0xe6	-0.17892289
169	0xf6	-0.0688165
170	0xed	-0.13075134
171	0x16	0.15139629
172	0x1e	0.2064495
173	0x3c	0.412899
174	0x05	0.03440825
175	0x04	0.027526598
176	0x16	0.15139629
177	0x05	0.03440825
178	0xfd	-0.020644948
179	0x31	0.33720082
180	0x26	0.26150268
181	0x2b	0.29591092
182	0x00	0.0
183	0x02	0.013763299
184	0x0c	0.08257979
185	0xe9	-0.15827794
186	0xfb	-0.03440825
187	0xfd	-0.020644948
188	0x13	0.13075134
189	0x1c	0.19268619
190	0x10	0.11010639
191	0x27	0.26838434
192	0x1b	0.18580455
193	0x38	0.38537237
194	0x0c	0.08257979
195	0x06	0.041289896
196	0x25	0.25462103
197	0xe8	-0.16515958
198	0x19	0.17204124
199	0xfb	-0.03440825
200	0x02	0.013763299
201	0x07	0.048171546
202	0xfe	-0.013763299
203	0xf8	-0.055053197
204	0xea	-0.15139629
205	0x21	0.22709444
206	0xe9	-0.15827794
207	0x00	0.0
208	0x06	0.041289896
209	0x05	0.03440825
210	0x0c	0.08257979
211	0x22	0.23397608
212	0x1d	0.19956784
213	0x11	0.11698804
214	0x00	0.0
215	0x0b	0.075698145
216	0x2d	0.30967423
217	0x03	0.020644948
218	0xe0	-0.22021279
219	0x17	0.15827794
220	0x24	0.24773939
221	0xfc	-0.027526598
222	0x24	0.24773939
223	0x16	0.15139629
224	0x07	0.048171546
225	0xed	-0.13075134
226	0x04	0.027526598
227	0x04	0.027526598
228	0x0c	0.08257979
229	0x02	0.013763299
230	0x07	0.048171546
231	0x07	0.048171546
232	0x25	0.25462103
233	0x04	0.027526598
234	0x0b	0.075698145
235	0xe1	-0.21333113
236	0x0a	0.0688165
237	0x18	0.16515958
238	0x23	0.24085774
239	0x1b	0.18580455
240	0x03	0.020644948
241	0x38	0.38537237
242	0x05	0.03440825
243	0x12	0.123869695
244	0x0f	0.10322475
245	0xf7	-0.061934847
246	0xe7	-0.17204124
247	0xdf	-0.22709444
248	0x23	0.24085774
249	0xeb	-0.14451464
250	0xfe	-0.013763299
251	0x06	0.041289896
252	0x33	0.35096413
253	0x07	0.048171546
254	0x1e	0.2064495
255	0x1c	0.19268619

sequential/dense_2/MatMul_bias f4 [60]
0	0xbafa3ba0	-0.0019091256
1	0x3d881208	0.06644064
2	0x3c5fb80b	0.013654719
3	0x3d56b64e	0.052419953
4	0x3d702097	0.05862483
5	0xbcd4160d	-0.02588942
6	0xbb5721f3	-0.0032826632
7	0x3d895be8	0.06706983
8	0xbc2aa7a1	-0.010415942
9	0x3c927bcc	0.017881297
10	0xbc30ff92	-0.01080312
11	0x3cefc0cf	0.029266743
12	0x3d3d1e21	0.04617131
13	0xbc062094	-0.008186478
14	0x3d801fd8	0.06256074
15	0xbce77e65	-0.028258512
16	0xbd41dd60	-0.04733026
17	0x3d86dccb	0.06585082
18	0xbc2e4f4c	-0.010639023
19	0x3d2fc0ec	0.042908594
20	0x3e0ed674	0.13948995
21	0x3d88a09c	0.06671259
22	0xbd04640f	-0.032321986
23	0xbd51e072	-0.05123944
24	0xbcd7b84a	-0.026332993
25	0x3d3d3a5a	0.046198227
26	0x3c7de6fb	0.015496965
27	0x3ce25f08	0.027633205
28	0x3d4807c1	0.04883552
29	0x3a97bf27	0.0011577354
30	0x3cdde395	0.027086059
31	0xbc3c99e4	-0.0115113
32	0xbd8828e3	-0.066484235
33	0x3d086f05	0.033309
34	0x3d930720	0.07179093
35	0x3d504afc	0.05085276
36	0x3d99ad91	0.07503808
37	0x3d04bf14	0.03240879
38	0x3ceb6c6a	0.02873822
39	0x3d2c751c	0.04210387
40	0x3be5737b	0.0070022917
41	0x3c8e6775	0.017383317
42	0x3c18a1ee	0.009315951
43	0xbbb2bec1	-0.0054548685
44	0x3d656fc1	0.05601478
45	0x3d94d4bf	0.072671406
46	0x3daeccbd	0.085351445
47	0xbc8c95f9	-0.017161356
48	0x3c248ff2	0.010044085
49	0x3d1b41f9	0.037904713
50	0x3d918bdf	0.071067564
51	0xbd4855fa	-0.04891012
52	0xbd144428	-0.03619781
53	0x3d1ad8c1	0.03780437
54	0x3cfbdd89	0.030745285
55	0x3d33d185	0.043900985
56	0x3c018db4	0.00790732
57	0xbbdc89fa	-0.0067303153
58	0xbd1d2b13	-0.038371157
59	0x3db983ce	0.09058343

sequential/dense_3/MatMul/ReadVariableOp/transpose i1 [41, 60] scale=0.011968457 zero_point=0
0	0x0f	0.17952685
1	0x06	0.071810745
2	0xd5	-0.51464367
3	0xe4	-0.3351168
4	0xa6	-1.0771612
5	0xd7	-0.49070674
6	0xf1	-0.17952685
7	0xfe	-0.023936914
8	0xe5	-0.32314834
9	0x0b	0.13165303
10	0x0f	0.17952685
11	0xbe	-0.7899182
12	0xd3	-0.5385806
13	0xda	-0.45480138
14	0x03	0.035905372
15	0xec	-0.23936914
16	0xce	-0.5984229
17	0xd8	-0.47873828
18	0xe9	-0.27527452
19	0x0a	0.11968457
20	0xfe	-0.023936914
21	0xde	-0.40692756
22	0xe1	-0.37102216
23	0xff	-0.011968457
24	0x07	0.0837792
25	0xe8	-0.28724298
26	0xd5	-0.51464367
27	0xe1	-0.37102216
28	0xf5	-0.13165303
29	0xde	-0.40692756
30	0xf7	-0.10771611
31	0xe4	-0.3351168
32	0x0a	0.11968457
33	0xef	-0.20346378
34	0xf1	-0.17952685
35	0xf0	-0.19149531
36	0x0d	0.15558994
37	0xf7	-0.10771611
38	0xba	-0.837792
39	0xfb	-0.059842285
40	0xe0	-0.38299063
41	0x0e	0.1675584
42	0x0a	0.11968457
43	0xdd	-0.418896
44	0xea	-0.26330605
45	0x0d	0.15558994
46	0xe6	-0.31117988
47	0xbc	-0.8138551
48	0xc5	-0.70613897
49	0xe5	-0.32314834
50	0xc0	-0.76598126
51	0xef	-0.20346378
52	0xee	-0.21543223
53	0xd8	-0.47873828
54	0xfa	-0.071810745
55	0x04	0.04787383
56	0xd2	-0.55054903
57	0xe5	-0.32314834
58	0x08	0.09574766
59	0xcc	-0.62235975
60	0xe8	-0.28724298
61	0xdc	-0.43086445
62	0xf1	-0.17952685
63	0x0c	0.14362149
64	0x06	0.071810745
65	0xef	-0.20346378
66	0xda	-0.45480138
67	0xe4	-0.3351168
68	0x04	0.04787383
69	0xc1	-0.7540128
70	0xd3	-0.5385806
71	0xf3	-0.15558994
72	0xcc	-0.62235975
73	0xf5	-0.13165303
74	0xda	-0.45480138
75	0x13	0.22740069
76	0x0b	0.13165303
77	0x0a	0.11968457
78	0x07	0.0837792
79	0xed	-0.22740069
80	0xda	-0.45480138
81	0x0d	0.15558994
82	0xe0	-0.38299063
83	0xf2	-0.1675584
84	0xcc	-0.62235975
85	0x0a	0.11968457
86	0x05	0.059842285
87	0xf2	-0.1675584
88	0xba	-0.837792
89	0xbf	-0.7779497
90	0xcf	-0.5864544
91	0xd0	-0.57448596
92	0xc6	-0.69417053
93	0x18	0.28724298
94	0xf5	-0.13165303
95	0xea	-0.26330605
96	0xf9	-0.0837792
97	0xa7	-1.0651927
98	0xf9	-0.0837792
99	0xf8	-0.09574766
100	0xf2	-0.1675584
101	0xf5	-0.13165303
102	0xcb	-0.63432825
103	0x04	0.04787383
104	0xfa	-0.071810745
105	0xd9	-0.4667698
106	0xc2	-0.7420443
107	0xe8	-0.28724298
108	0x04	0.04787383
109	0xf7	-0.10771611
110	0xe9	-0.27527452
111	0xe4	-0.3351168
112	0xf2	-0.1675584
113	0xf5	-0.13165303
114	0xee	-0.21543223
115	0x0e	0.1675584
116	0xf3	-0.15558994
117	0xd8	-0.47873828
118	0x06	0.071810745
119	0xfe	-0.023936914
120	0xb4	-0.90960276
121	0xf8	-0.09574766
122	0x06	0.071810745
123	0xda	-0.45480138
124	0xf4	-0.14362149
125	0xda	-0.45480138
126	0x02	0.023936914
127	0xf6	-0.11968457
128	0xc9	-0.6582651
129	0xe2	-0.3590537
130	0x01	0.011968457
131	0x00	0.0
132	0xbc	-0.8138551
133	0xdb	-0.44283292
134	0x02	0.023936914
135	0xfe	-0.023936914
136	0xbe	-0.7899182
137	0xea	-0.26330605
138	0x03	0.035905372
139	0xd6	-0.5026752
140	0x09	0.10771611
141	0x07	0.0837792
142	0xbf	-0.7779497
143	0x0a	0.11968457
144	0xc6	-0.69417053
145	0x04	0.04787383
146	0xd2	-0.55054903
147	0xdf	-0.3949591
148	0xf8	-0.09574766
149	0xf8	-0.09574766
150	0xe4	-0.3351168
151	0xfa	-0.071810745
152	0xe0	-0.38299063
153	0xd3	-0.5385806
154	0xf5	-0.13165303
155	0xbb	-0.82582355
156	0xc9	-0.6582651
157	0xd3	-0.5385806
158	0xc0	-0.76598126
159	0xd7	-0.49070674
160	0xd4	-0.5266121
161	0xea	-0.26330605
162	0x0f	0.17952685
163	0x07	0.0837792
164	0x04	0.04787383
165	0x1a	0.31117988
166	0x0b	0.13165303
167	0xc9	-0.6582651
168	0x0a	0.11968457
169	0x00	0.0
170	0xfe	-0.023936914
171	0xf1	-0.17952685
172	0xd0	-0.57448596
173	0x03	0.035905372
174	0x05	0.059842285
175	0x0d	0.15558994
176	0xe7	-0.29921144
177	0xe1	-0.37102216
178	0xf6	-0.11968457
179	0xeb	-0.2513376
180	0xd3	-0.5385806
181	0x0c	0.14362149
182	0xd2	-0.55054903
183	0xd7	-0.49070674
184	0xe3	-0.34708527
185	0xe2	-0.3590537
186	0xda	-0.45480138
187	0x16	0.26330605
188	0xf2	-0.1675584
189	0xc2	-0.7420443
190	0x14	0.23936914
191	0xc5	-0.70613897
192	0xe8	-0.28724298
193	0xc3	-0.7300759
194	0xeb	-0.2513376
195	0xfe	-0.023936914
196	0xdd	-0.418896
197	0xdd	-0.418896
198	0xe7	-0.29921144
199	0xf6	-0.11968457
200	0xed	-0.22740069
201	0xd9	-0.4667698
202	0xce	-0.5984229
203	0xf3	-0.15558994
204	0xe1	-0.37102216
205	0xd6	-0.5026752
206	0x10	0.19149531
207	0xe1	-0.37102216
208	0x09	0.10771611
209	0xeb	-0.2513376
210	0xfb	-0.059842285
211	0x09	0.10771611
212	0xdf	-0.3949591
213	0xec	-0.23936914
214	0x07	0.0837792
215	0xe0	-0.38299063
216	0xeb	-0.2513376
217	0xf1	-0.17952685
218	0x17	0.27527452
219	0xd5	-0.51464367
220	0xf7	-0.10771611
221	0xeb	-0.2513376
222	0xfa	-0.071810745
223	0xee	-0.21543223
224	0x05	0.059842285
225	0xeb	-0.2513376
226	0xf3	-0.15558994
227	0x10	0.19149531
228	0xeb	-0.2513376
229	0xfb	-0.059842285
230	0xe1	-0.37102216
231	0xf2	-0.1675584
232	0xd3	-0.5385806
233	0xd1	-0.56251746
234	0xe5	-0.32314834
235	0xb5	-0.89763427
236	0x01	0.011968457
237	0xf0	-0.19149531
238	0xf5	-0.13165303
239	0x11	0.20346378
240	0xe8	-0.28724298
241	0xfa	-0.071810745
242	0xf9	-0.0837792
243	0x0e	0.1675584
244	0xf2	-0.1675584
245	0x0d	0.15558994
246	0x0c	0.14362149
247	0x0f	0.17952685
248	0xe4	-0.3351168
249	0xd2	-0.55054903
250	0xfc	-0.04787383
251	0xea	-0.26330605
252	0x03	0.035905372
253	0xf9	-0.0837792
254	0xff	-0.011968457
255	0xe2	-0.3590537

sequential/dense_3/MatMul_bias f4 [41]
0	0xbd79797f	-0.060906883
1	0xbd8e64a1	-0.06952787
2	0xbd3a9c95	-0.045559485
3	0xbe0797af	-0.13241456
4	0xbce5f536	-0.028071027
5	0xbc002501	-0.007821322
6	0xbe06d10f	-0.13165687
7	0xbd520530	-0.05127448
8	0xbd67c391	-0.05658299
9	0xbd8a34e2	-0.06748368
10	0xbd8546b3	-0.065076254
11	0xbdd7f471	-0.105446704
12	0xbdd9114e	-0.10599004
13	0xbe0df653	-0.13863496
14	0xbda2d635	-0.07951013
15	0xbde09af0	-0.10967052
16	0xbdea500a	-0.114410475
17	0xbd008a58	-0.031381935
18	0x3aa04a00	0.0012229085
19	0xbddc121a	-0.1074564
20	0xbd9372d3	-0.07199635
21	0xbdc9c744	-0.0985246
22	0xbdaba839	-0.08381695
23	0xbd61da11	-0.055139605
24	0xbde3c5b4	-0.11121693
25	0xbd9db298	-0.0770008
26	0xbe0c0358	-0.1367315
27	0xbd50e3bf	-0.050998446
28	0xbda97600	-0.0827446
29	0xbdcb632a	-0.099310234
30	0xbd41ba9b	-0.0472971
31	0xbddc8474	-0.10767451
32	0xbd2f4181	-0.04278708
33	0xbc99f552	-0.018793736
34	0xbda656d4	-0.0812203
35	0xbdebbf2b	-0.11511072
36	0xbdba14cf	-0.09086
37	0xbda599e8	-0.08085996
38	0x3b9d6fdb	0.004804594
39	0xbde69425	-0.11258725
40	0xbdac3fc2	-0.08410598
